experiments/noncartesian_phantom/data/b0.npy (npy, 193728 bytes, 1 tensors)

array f4 [220, 220]
-187.43114 219.59668 52.581867 69.94025 -238.71504 -139.2269 -137.05515 163.99269
-25.016125 -56.31243 -49.37228 27.993942 30.095016 -224.75629 240.29349 101.14899
67.150375 137.89027 -16.92661 -8.178073 -20.091148 -3.7996924 54.950726 17.483484
-26.505363 -146.89952 225.68527 189.63342 84.50629 60.76371 70.81423 -101.36954
-8.863607 -6.824408 -36.598442 -192.82579 78.34886 87.812744 182.38649 -18.874907
-19.549046 -46.316357 -187.18196 147.26118 121.8494 108.23931 8.554335 1.6083162
13.628772 27.59862 24.198202 21.090755 22.026146 22.846764 20.500797 30.682314
47.10528 45.905437 49.674862 49.18198 29.23666 21.687344 -4.3775277 28.42602
34.272102 47.78891 31.475595 29.814793 31.602682 43.335144 34.93124 30.44172
31.194813 34.1304 54.5335 28.6328 29.08487 29.795639 30.263346 30.246002
28.545794 16.588757 16.544292 22.477552 24.339708 24.804077 25.298069 26.479803
28.514204 31.541872 35.79832 41.131207 44.108692 34.319378 19.65216 18.171574
19.725502 18.592762 16.482754 14.904654 14.845848 16.75553 19.40826 20.98238
20.70782 19.197954 17.669067 17.012398 17.328758 18.062328 18.772013 19.571741
20.74511 22.12456 22.966017 22.38041 19.877144 15.515579 9.752871 4.046922
3.1086473 9.186182 14.858263 15.632003 12.1879 6.061535 -4.8092136 35.14212
22.577875 14.000836 8.035411 1.1083372 -0.15612507 7.288748 5.1237316 3.042972
0.733549 -2.8755352 -14.374418 -21.392126 5.591798 5.0486913 3.9679601 1.9005154
23.02555 10.35807 6.258541 2.7816992 -7.273299 22.321636 11.338455 7.1487746
1.0669762 -9.754022 11.327315 8.1509495 4.235642 -30.03758 21.364891 17.92392
21.69476 50.6119 -7.6015964 3.9202642 17.026457 -82.43288 -32.93921 -25.767065
-46.098785 -23.62893 -11.365382 -2.9996607 -10.554119 -29.688478 -50.088547 126.99404
55.229248 37.913353 180.26297 -1.2163811 4.709899 25.262497 66.32291 14.512348
6.892363 42.8883 22.454378 -2.6571653 -22.455288 -237.31288 -11.262208 -24.597696
-43.209644 10.663552 -34.406597 -91.63477 71.97824 58.67674 55.089672 71.38861
-63.568626 -44.458336 -80.98291 42.333023 35.838745 26.08867 -115.10312 64.17406
63.285854 90.71517 -145.96004 -57.06983 -42.34681 -52.268826 50.217865 0.41375086
-1.248775 60.85836 24.877266 -87.01385 -97.51712 -246.4682 81.98585 72.44007
128.46758 -130.21103 -62.35932 -182.64798 163.7109 120.438034 163.91534 -59.282932
-9.808483 17.24799 247.61516 94.41053 35.600143 86.74158 -209.40373 -50.205345
-41.928246 -91.28207 80.2874 19.146439 -12.438456 -61.737305 -105.69183 110.83789
65.53257 3.4979722 32.732235 59.924343 -20.615232 12.707599 14.89203 -93.78333
00000000: 5f6e 3bc3 c098 5b43 d553 5242 68e1 8b42
00000010: 0db7 6ec3 163a 0bc3 1e0e 09c3 21fe 2343
00000020: 0621 c8c1 ee3f 61c2 377d 45c2 98f3 df41
00000030: 98c2 f041 9cc1 60c3 224b 7043 484c ca42
00000040: fe4c 8642 e9e3 0943 b369 87c1 63d9 02c1
00000050: acba a0c1 292e 73c0 8bcd 5b42 2dde 8b41
00000060: fc0a d4c1 47e6 12c3 6eaf 6143 28a2 3d43
00000070: 3803 a942 0a0e 7342 e3a0 8d42 34bd cac2
00000080: 56d1 0dc1 8d61 dac0 ce64 12c2 67d3 40c3
00000090: 9eb2 9c42 20a0 af42 f162 3643 cfff 96c1
000000a0: 7264 9cc1 f343 39c2 952e 3bc3 dd42 1343
000000b0: e5b2 f342 877a d842 8ede 0841 4edd cd3f
000000c0: 730f 5a41 f9c9 dc41 eb95 c141 deb9 a841
000000d0: 8c35 b041 2cc6 b641 a201 a441 6175 f541
000000e0: cf6b 3c42 2b9f 3742 0fb3 4642 59ba 4442
000000f0: aee4 e941 ae7f ad41 b514 8cc0 7d68 e341
00000100: a216 0942 d827 3f42 05ce fb41 b284 ee41
00000110: 4bd2 fc41 3057 2d42 97b9 0b42 a488 f341
00000120: fa8e f941 8885 0842 4e22 5a42 f90f e541
00000130: d0ad e841 785d ee41 551b f241 d0f7 f141
00000140: c95d e441 c6b5 8441 b65a 8441 07d2 b341
00000150: b9b7 c241 c06e c641 7262 ca41 a3d6 d341
00000160: 171d e441 c155 fc41 7b31 0f42 5b86 2442
00000170: 4d6f 3042 0b47 0942 a037 9d41 625f 9141
00000180: d4cd 9d41 fabd 9441 aedc 8341 7679 6e41
00000190: 9888 6d41 530b 8641 1e44 9b41 eadb a741
000001a0: 9ea9 a541 6995 9941 405a 8d41 6419 8841
000001b0: 4ca1 8a41 a67f 9041 152d 9641 ed92 9c41
000001c0: fcf5 a541 19ff b041 67ba b741 140b b341
000001d0: 6404 9f41 d03f 7841 c20b 1c41 6380 8140
000001e0: 14f4 4640 9afa 1241 72bb 6d41 af1c 7a41
000001f0: a301 4341 18f8 c140 14e5 99c0 8891 0c42
00000200: 7d9f b441 6d03 6041 0b91 0041 fedd 8d3f
00000210: 40df 1fbe 6c3d e940 9cf5 a340 0ec0 4240
00000220: dec9 3b3f c508 38c0 9efd 65c1 1323 abc1
00000230: 02f0 b240 e18e a140 0ff3 7d40 1744 f33f
00000240: 5434 b841 a8ba 2541 f845 c840 5c07 3240
00000250: debe e8c0 b692 b241 506a 3541 c3c2 e440
00000260: ad92 883f 7910 1cc1 af3c 3541 4a6a 0241
00000270: 618a 8740 f74c f0c1 4ceb aa41 3064 8f41
00000280: de8e ad41 9672 4a42 4740 f3c0 9ce5 7a40
00000290: 2f36 8841 a2dd a4c2 c0c1 03c2 f322 cec1
000002a0: 2865 38c2 0c08 bdc1 9bd8 35c1 71fa 3fc0
000002b0: acdd 28c1 0182 edc1 ac5a 48c2 f3fc fd42
000002c0: c0ea 5c42 46a7 1742 5243 3443 60b2 9bbf
000002d0: 7eb7 9640 9819 ca41 54a5 8442 9432 6841
000002e0: 3d8e dc40 9f8d 2b42 91a2 b341 ff0e 2ac0
000002f0: 6ea4 b3c1 1950 6dc3 0132 34c1 15c8 c4c1
00000300: add6 2cc2 e99d 2a41 5ba0 09c2 0145 b7c2
00000310: dcf4 8f42 fbb4 6a42 d35b 5c42 f8c6 8e42
00000320: 4646 7ec2 56d5 31c2 40f7 a1c2 0455 2942
00000330: e05a 0f42 99b5 d041 cc34 e6c2 1e59 8042
00000340: b724 7d42 2b6e b542 c5f5 11c3 8247 64c2
00000350: 2263 29c2 4713 51c2 18df 4842 27d7 d33e
00000360: dcd7 9fbf f66e 7342 a404 c741 1707 aec2
00000370: c408 c3c2 dc77 76c3 c1f8 a342 51e1 9042
00000380: b377 0043 0636 02c3 f26f 79c2 e2a5 36c3
00000390: feb5 2343 46e0 f042 54ea 2343 b921 6dc2
000003a0: 8cef 1cc1 e2fb 8941 7b9d 7743 31d2 bc42
000003b0: 8c66 0e42 b07b ad42 5b67 51c3 46d2 48c2
000003c0: 86b6 27c2 6b90 b6c2 2693 a042 e82b 9941
000003d0: ea03 47c1 00f3 76c2 3862 d3c2 00ad dd42
000003e0: ad10 8342 c7de 5f40 cfed 0242 87b2 6f42
000003f0: ffeb a4c1 5352 4b41 c145 6e41 1191 bbc2
